model/model.pth (torch, 17216 bytes, 4 tensors)

linear1.weight f4 [256, 11]
000000 c1 ef 16 3e 06 ee a7 3d b9 e5 b3 3e db a6 b8 be
       0.14739896 0.08199696 0.35136202 -0.360648
000010 d2 7a a3 bd ab 1f a5 3e a9 ff a1 be 54 87 e4 3e
       -0.079824105 0.32250723 -0.31640366 0.44634497
000020 92 25 9f 3e 00 d4 15 be 8e 86 06 3f 95 19 b8 3e
       0.3108335 -0.14631653 0.52549064 0.35957018
000030 f9 35 d0 3c 6f 0e ec 3e c8 20 c4 be 2b cb a2 be
       0.025416361 0.46104762 -0.3830626 -0.3179563
000040 cf 67 81 be 27 9b 62 3e fe 63 17 3e 46 6b 1b 3e
       -0.25274512 0.22129498 0.14784238 0.1517764
000050 87 9e 2e 3e 3c e6 8b be c4 cc c5 bd 0d 18 a2 bd
       0.17052661 -0.27324092 -0.096581966 -0.079147436
000060 91 66 58 bc 91 16 63 3e d3 65 f7 3e c6 4e 46 bd
       -0.0132080475 0.22176577 0.48319873 -0.048414968
000070 e3 8b de be 0f 34 c1 bd 04 f3 a7 be 62 f8 73 3e
       -0.434661 -0.094337575 -0.32802594 0.2382522
000080 d8 33 1e 3f 7d ff 0d bd fc 75 af bc da 1d 4f 3d
       0.6179786 -0.03466748 -0.021418564 0.050565578
000090 6e 14 e6 3e 39 a2 21 be 6f 55 6c bd 87 d6 b1 bb
       0.44937462 -0.1578454 -0.057698663 -0.005427185
0000a0 6f 71 b1 be 0a 0d c3 be b9 3e 9a 3e 4b 41 43 be
       -0.34656855 -0.38095886 0.3012598 -0.19067876
0000b0 9f 35 54 be ae 28 05 3f 12 4b 96 be 88 20 6c 3e
       -0.2072358 0.520152 -0.2935415 0.23059285
0000c0 2e ba 05 3e 4d 63 18 3e 8f 57 b7 3e 11 16 d6 be
       0.13059303 0.1488163 0.3580899 -0.4181371
0000d0 ee 34 23 bf c0 5a 52 3e c9 d1 7c 3e 56 72 d4 be
       -0.6375264 0.20542431 0.24689402 -0.4149348
0000e0 36 09 38 be 87 ba 19 3f 33 74 05 3c 28 18 a9 be
       -0.17972264 0.60050243 0.00814538 -0.33026242
0000f0 2c be ff 3b b9 5a 8b 3d 53 f2 59 3e 69 0b a1 bd
       0.0078046527 0.06804413 0.21283846 -0.078635044
000100 c1 17 bb 3e 32 f9 5f be bc 09 96 3e c3 14 d6 3e
       0.3654156 -0.21872404 0.29304302 0.41812715
000110 2e 51 07 3f 36 d5 0b bd 8d 86 94 bd 7c 46 5d 3c
       0.52858245 -0.03413888 -0.07252226 0.013505574
000120 b2 16 97 3d dd 20 8e 3d c7 12 d6 3d 7e 20 65 3e
       0.07377376 0.06939862 0.104528 0.22375676
000130 e4 09 59 3e 62 92 ea be 93 bb 04 3e 7e 35 bb bc
       0.21195179 -0.45814806 0.12962179 -0.022852656
000140 18 ca 47 3e 8a e1 4a 3e 50 d2 30 bf e8 c1 f4 be
       0.19510686 0.19812599 -0.6907091 -0.4780419
000150 4e 68 48 3e d1 a8 a4 3e 9c 52 14 bf 31 f6 0e bf
       0.19571039 0.32160047 -0.5793855 -0.5584441
000160 3f 57 c0 be f9 0c 15 bd f4 fc 39 3e 0c bd 94 be
       -0.37566563 -0.036389325 0.181629 -0.2905048
000170 4f 66 97 be 0b 67 96 be 1f 5b 28 be f3 f0 0b be
       -0.29570243 -0.2937549 -0.1644101 -0.13666134
000180 91 64 b0 bd d3 6a 11 3e 03 1e c9 be 2e 99 79 3d
       -0.086129315 0.14200906 -0.3928071 0.0609371
000190 08 7c 60 be 97 bc d2 be 68 cd 29 be e6 42 0e bf
       -0.21922314 -0.41159508 -0.16582263 -0.5557083
0001a0 4a e9 10 bf 6c b2 ce 3e 68 3e e9 be 76 8a cb be
       -0.5660597 0.403705 -0.45555425 -0.39754075
0001b0 db 57 5d be eb e4 e3 3e 59 8d 91 3d b8 61 c6 3d
       -0.21615545 0.44510588 0.07107038 0.09686607
0001c0 7c e8 6b 3d db a8 17 be b0 53 7f be a2 33 e2 be
       0.05759476 -0.14810507 -0.24934268 -0.44180018
0001d0 b7 e1 a6 3e f6 9e 10 3e b6 13 d9 3e 2b c4 f3 3c
       0.32594082 0.14123139 0.4239785 0.029756626
0001e0 1f b1 27 be a3 48 9c bd 62 5e d6 be 0c a8 2b 3c
       -0.1637616 -0.07631042 -0.41868883 0.010477077
0001f0 4d 56 d5 bd 0c 9f 2c bb 03 c3 82 3e c5 cd bc 3e
       -0.10416851 -0.0026339917 0.25539407 0.3687574
000200 12 49 0d bf f8 3a 1c bf 86 d9 b2 3d 5e 9f 38 3e
       -0.5518962 -0.6102748 0.087328956 0.18029544
000210 65 4e 1c 3e 4c 56 b9 be 71 47 ba be ef 08 29 3d
       0.1526428 -0.36198652 -0.3638263 0.041268285
000220 73 80 aa bd 95 3b 9d be 21 f7 97 be 9e 67 80 be
       -0.08325281 -0.3070952 -0.29680732 -0.25079054
000230 7d a7 86 be e6 62 58 3e 26 58 21 be db 79 58 3d
       -0.26299658 0.21131477 -0.15756282 0.052850585
000240 33 1d c0 be 37 a9 84 3e 8c 54 87 3e 65 af 97 3e
       -0.37522277 0.2591035 0.26431692 0.29626003
000250 05 a4 a0 be bc d7 79 be cb 13 82 be cc 2d c6 be
       -0.31375137 -0.24398702 -0.25405726 -0.38706815
000260 3e 9e a0 3e 85 f6 50 3e 6e 4d 07 be de 52 b9 bc
       0.3137073 0.2040654 -0.13213131 -0.022622522
000270 5a 5c a8 3d f9 e6 e3 3d 58 f2 dd 3c 6c c1 53 be
       0.0822074 0.11128039 0.027093098 -0.20679253
000280 c9 9b 8d 3d c6 a6 40 be 15 ce d6 bc 31 19 11 be
       0.06914479 -0.18813619 -0.026221314 -0.14169766
000290 25 c6 15 bd 5f a7 d6 3d 81 a4 28 3e f4 c5 b6 3e
       -0.03656592 0.10481142 0.16469003 0.356979
0002a0 f1 6c 3b 3e ca db 8c be 2c 49 2e be 76 4d da bd
       0.18303277 -0.27511436 -0.170201 -0.10659306
0002b0 5e 63 95 bb b3 06 24 3e 43 b3 b7 be 7f 94 1c bd
       -0.0045589646 0.1601818 -0.35878953 -0.038227554
0002c0 c5 fa ed 3e c4 3f 10 bf ae 95 91 3e 5d ac e3 bd
       0.46480384 -0.563473 0.2843451 -0.1111686
0002d0 81 be 1c 3d 63 b4 33 be fd 57 37 3e a2 2b b1 3d
       0.038267616 -0.17549281 0.17904659 0.086509004
0002e0 7a 35 95 bc 0a 0d 62 3e 7d a6 89 be b0 a2 dd be
       -0.018213976 0.22075287 -0.26884833 -0.43288183
0002f0 49 e3 0f 3e ec e2 e6 3e 27 d4 8d be 92 94 f4 3d
       0.14051546 0.45095003 -0.27700922 0.119424
000300 af ee 3e 3e d9 c8 9d 3e 77 cd f0 be bd ea 61 bc
       0.18645738 0.30817297 -0.47031757 -0.013788876
000310 f3 a9 71 bd 2b f2 29 3c 96 22 f6 3e ae 11 59 be
       -0.058999967 0.010372679 0.48073262 -0.2119815
000320 8c a2 ff be c7 b5 ed bb 69 56 92 3e ce 24 85 3e
       -0.499287 -0.0072543356 0.2858155 0.26004642
000330 23 c5 95 3e ab 5c ed bd b7 98 33 3d f6 98 e8 3b
       0.29251966 -0.11589941 0.043846812 0.0070983125
000340 21 f4 75 be 5e a6 fd be 3d ac 7c be a8 3e 41 3f
       -0.24018909 -0.4954099 -0.24675079 0.7548623
000350 be a3 a7 be b1 94 27 be d0 fa 86 3b 50 ef 8e 3e
       -0.32742113 -0.16365315 0.0041192546 0.27916956
000360 ef 86 90 3c cd e3 6f be d4 31 09 3e 42 2f d4 3e
       0.017642466 -0.23426743 0.13397914 0.41442305
000370 be 16 89 be 46 f8 20 be 96 86 23 3f e4 20 cd 3d
       -0.26775163 -0.15719709 0.63877237 0.10016039
000380 b0 1d 47 3e 42 d5 10 bf 13 6d d3 be a5 b4 70 3e
       0.19444919 -0.56575406 -0.41294155 0.2350641
000390 c2 ea 98 3e b1 63 db be 91 01 da be 01 43 23 3e
       0.29866606 -0.42849496 -0.4257932 0.15943529
0003a0 54 12 61 be fc 77 b1 3d 54 79 cd 3e 6b c7 01 3e
       -0.21979648 0.08665463 0.4013163 0.12673728
0003b0 38 32 87 be e7 5d 03 be 0f ca a1 be ca 28 99 bd
       -0.264055 -0.1282879 -0.3159947 -0.07478483
0003c0 ea 83 bb 3e 3f 42 b1 be e9 8e 25 be 47 e2 1d 3e
       0.3662408 -0.34620854 -0.16167797 0.15418349
0003d0 7d f2 ac bd e9 10 74 be 6b a5 9f be 86 b0 16 3e
       -0.084446885 -0.23834576 -0.3118089 0.14715776
0003e0 3d 9e 3a 3e 4b ad fe bd 1a a2 e7 be 73 32 6b 3e
       0.18224426 -0.12435397 -0.4524086 0.22968464
0003f0 f6 74 97 3e b9 c2 8d 3e b6 9b 00 3f 4b 68 08 3f
       0.29581422 0.27687624 0.50237596 0.5328414

linear1.bias f4 [256]
000000 6a ad 3b be 3b 2e 64 bd ea aa 2b be ae eb 8a be
       -0.18327871 -0.05570815 -0.16764417 -0.27132934
000010 01 ac 0b 3e 85 b2 9d bd bf 67 2d be c5 92 a5 3e
       0.13639833 -0.077000655 -0.16934107 0.3233854
000020 04 20 eb bd 5f 5b 63 3d 7a 63 c6 be f9 79 62 3f
       -0.11480716 0.05550706 -0.3874777 0.88467366
000030 8b bb 78 3d 9c f0 81 ba f8 ba 93 be c0 59 ea bd
       0.06072573 -0.0009913626 -0.28853583 -0.114429
000040 87 a5 8c be 6c 53 28 3e ee 99 ad 3e 17 dc ff bc
       -0.27470037 0.16438073 0.33906502 -0.031232877
000050 55 dc 4d 3e dc 54 87 be 9d b5 1d be 16 81 91 be
       0.20103581 -0.2643193 -0.15401311 -0.28418797
000060 ef 07 33 3d b0 1c 8a be f9 58 1c be 2d 2a 84 3d
       0.043708738 -0.26975012 -0.15268315 0.06453357
000070 55 14 ca be 3a cf 75 3e ac 03 4d 3e 90 50 dc bc
       -0.39468637 0.24004832 0.20020932 -0.026893884
000080 b8 ef a8 be a8 f6 9f be e5 f7 29 3e 23 c5 53 be
       -0.3299539 -0.3124287 0.1659847 -0.2068067
000090 6d c2 b6 be f6 f0 be bd e8 9e 3e be d0 f2 0e be
       -0.3569521 -0.093233034 -0.18615305 -0.13959813
0000a0 14 40 60 bc 82 d7 a2 3c 42 5a ff 3d 3c 7a fb be
       -0.013687152 0.019878153 0.12468387 -0.49116695
0000b0 d2 0a 9c be 69 8b 3a 3d 05 46 0c be 6d 7f ac be
       -0.30477005 0.045543108 -0.13698585 -0.33690968
0000c0 f8 73 a3 3e a7 07 0e 3e 2e 6a ad bd ac d3 a3 bd
       0.31924415 0.13870107 -0.08467518 -0.079993576
0000d0 74 57 0c 3d 85 05 2e 3e 58 f9 b0 be 89 0b f6 bd
       0.03426309 0.16994293 -0.34565234 -0.12013919
0000e0 38 6a 0c 3e e9 4a 07 bf 98 de 3f be 03 bb ae be
       0.13712394 -0.5284868 -0.18737257 -0.34127054
0000f0 2f cf 1b be 68 fd db bd 2d d7 ae 3e c8 f8 58 3e
       -0.15215753 -0.10741693 0.3414854 0.21188653
000100 15 52 65 bd 2c bd 97 be 45 e4 8b be 24 dc 9d bc
       -0.055986483 -0.29636514 -0.27322593 -0.01927001
000110 cd 56 91 be d7 0c 2d be 1c 39 a5 be 90 3a 6c be
       -0.28386536 -0.1689943 -0.32270133 -0.23069215
000120 a4 01 8a be b1 c1 58 3e 12 66 5d 3e 27 06 88 3e
       -0.26954377 0.21167637 0.21620968 0.26567194
000130 e6 09 63 be f7 bb c8 3e 23 42 5a be e6 78 0c be
       -0.22171745 0.39205906 -0.21314292 -0.13717994
000140 4d aa 0f 3d 69 af 8b be cb 15 8e be c3 d6 b5 bd
       0.03507452 -0.27282265 -0.27751002 -0.08878853
000150 98 7f 0f 3d 31 8a 91 3d 9c fd 82 bd 91 bf 72 3d
       0.035033792 0.07106436 -0.063960284 0.059264723
000160 48 a3 9b bd fa b2 e1 bd 3f 55 43 be 69 d2 77 bd
       -0.07599503 -0.11020465 -0.19075488 -0.060503397
000170 ac 4a 63 3e 69 bf 0c be d7 35 00 3e a8 7a 58 3e
       0.22196454 -0.13744892 0.12520538 0.2114054
000180 22 fc 21 3e 6d 9e b7 bc af a2 f2 3d 1f b8 0e be
       0.15818837 -0.02241441 0.11847436 -0.13937424
000190 6b 41 00 be 47 ac 16 be c0 4a 15 3e 2d 68 a9 3d
       -0.12524955 -0.14714156 0.14579296 0.08271823
0001a0 6e 4c 87 bc 0c dc 0b be bd 7c 5b bd 91 93 64 bd
       -0.016515937 -0.1365816 -0.053585757 -0.055804793
0001b0 e3 92 c4 bd c5 0c e5 3e 34 cf a5 be eb ae 9a bd
       -0.09598329 0.44736305 -0.32384646 -0.07552894
0001c0 b3 96 3e be 7c d8 11 3e 36 48 a6 3d 6a 53 93 3e
       -0.18612175 0.14242738 0.08119242 0.28774577
0001d0 86 f9 29 bc d4 71 8c be 50 be f5 bd ce 14 9a bd
       -0.010374432 -0.27430594 -0.1199919 -0.075234994
0001e0 7b c7 54 3e 3e d0 2f be bb 11 7d be c3 99 32 3e
       0.20779221 -0.17169282 -0.24713795 0.17441468
0001f0 63 7e 03 be 3a 9d 7c 3d 55 f1 77 3d 74 dc 79 3e
       -0.12841181 0.06167338 0.060532887 0.24400502
000200 46 d2 96 3d f2 47 a3 be 21 ac fa be 7c 15 a2 3c
       0.07364325 -0.31890827 -0.4895945 0.019785635
000210 bf 6c 43 bd 12 ec c0 bd e9 f3 a1 3e d0 ae 00 3e
       -0.04771113 -0.09420027 0.316314 0.12566686
000220 8a a7 b5 be b7 98 23 3f 62 3c bb bd 63 ab 05 3e
       -0.35479385 0.639049 -0.091423765 0.1305366
000230 d3 b5 bf be 08 5d b9 be e1 b1 19 bd 7c f3 5e be
       -0.37443408 -0.3620379 -0.037523154 -0.2177257
000240 ce 7d 2a bd 92 39 b9 be ec de c6 be d6 4b 06 3d
       -0.041623883 -0.36176735 -0.3884195 0.032787167
000250 d3 a9 80 bd aa cc b7 be 72 70 a1 bb 70 0b 85 bc
       -0.062823914 -0.35898334 -0.0049267346 -0.016240805
000260 3e 2d 30 3d a4 d7 30 be 5a a1 90 be 7e b3 91 3e
       0.043011896 -0.1726976 -0.282481 0.28457254
000270 71 93 99 3c bc 2c 0e be 5e 1c f3 bd 7b 1e c7 be
       0.018747063 -0.13884252 -0.11870645 -0.38890442
000280 80 96 63 be 41 9b 9a be 58 88 83 be e2 2b e8 3e
       -0.2222538 -0.30196574 -0.2568996 0.4534598
000290 64 9f 88 be d8 8d 68 be 05 87 22 be 46 26 86 bc
       -0.26684105 -0.22710359 -0.15871818 -0.016375672
0002a0 56 c3 29 be fe bd c6 be 3d b4 99 bd eb a7 f3 bd
       -0.16578421 -0.38816828 -0.07505081 -0.11897262
0002b0 39 a2 44 be 51 82 04 3e 55 49 35 be 1d 78 12 3b
       -0.19202508 0.12940337 -0.17703755 0.0022349425
0002c0 8c 2c 55 ba 94 99 b1 be 5e e7 7f be d5 60 95 3d
       -0.0008131943 -0.34687483 -0.24990603 0.0729386
0002d0 0c 2d 4f be cf 3b cc 3e d4 4f b4 be fd 5e cf 3d
       -0.20232028 0.3988938 -0.35217154 0.101255395
0002e0 0a 88 ad be 19 2b 64 bc 86 66 f7 3b 24 fd e1 3c
       -0.33892852 -0.013926291 0.0075500635 0.027586527
0002f0 25 92 82 be a0 18 3c be 3c d2 1d 3e 25 de b0 bd
       -0.25502124 -0.18368769 0.1541223 -0.08636121
000300 b9 20 9d 3e 4a 11 3e 3e cd 69 90 3e 81 72 90 3e
       0.30689028 0.18561283 0.2820572 0.2821236
000310 49 ee 84 3c 69 3d 5e be 71 44 1f be 64 79 f0 bc
       0.016226904 -0.21703114 -0.15553452 -0.029354759
000320 aa c1 be 3d e4 f5 22 be 67 5b 9e bd 78 64 a4 be
       0.09314282 -0.15914112 -0.07732277 -0.32107902
000330 49 2d a4 3d 7e 4e 2d be bf 37 07 3e 15 1d 07 3f
       0.0801645 -0.16924474 0.13204859 0.5277875
000340 e2 26 4b be 15 e9 4c be 39 af 77 3f 48 e7 8a be
       -0.19839051 -0.20010789 0.96751744 -0.2712958
000350 4e 47 c1 3d 37 ff 7e bd 91 65 2d be 9e 80 80 bd
       0.094374284 -0.06225511 -0.16933276 -0.06274532
000360 25 f3 03 be 8d 17 ca bd cb ba 06 3d 4c dc a4 3d
       -0.12885721 -0.09867773 0.032892983 0.08049831
000370 25 38 07 3f f9 06 de bd 02 99 f4 bd 4c 8c 13 bd
       0.52820045 -0.10841174 -0.119432464 -0.03602247
000380 19 c5 01 3e 60 74 3c 3e 42 94 8a bd 27 71 c3 3e
       0.12672843 0.18403769 -0.06766559 0.38172266
000390 88 6b 95 bb df 36 a4 be 79 73 8c be 45 c0 83 be
       -0.004559938 -0.32073113 -0.2743185 -0.25732628
0003a0 a0 99 cf 3d a1 c5 50 3e ca 27 cb be 5b 51 42 bd
       0.101367235 0.2038789 -0.39678794 -0.047440868
0003b0 bb 71 a2 bd 58 12 ac 3d e0 78 af be e5 93 2c 3c
       -0.079318486 0.08401936 -0.34271908 0.010533308
0003c0 a7 ab aa bc 8d f4 c3 be 14 cc 99 be a3 ff c0 3d
       -0.020833803 -0.38272515 -0.30038512 0.09423759
0003d0 e4 af 90 be 50 74 68 3e 77 2c 0d be b9 5b af be
       -0.28259194 0.2270062 -0.13786493 -0.34249666
0003e0 12 70 6f be c9 98 e1 be f7 83 8d be 69 51 2e 3c
       -0.23382595 -0.44061878 -0.27639744 0.010639527
0003f0 f7 ef 58 be f0 47 31 3c b6 9a 1e be f3 6f b5 3e
       -0.2118529 0.010820374 -0.15488705 0.35436973

linear2.weight f4 [3, 256]
000000 52 c0 e4 be d6 f8 56 be 9b 43 2c bf 9b 4c 1e be
       -0.4467798 -0.20993361 -0.6729066 -0.1545891
000010 30 a0 a5 3e c8 ea 8e 3d c9 60 8f bd e4 3b 08 3f
       0.32348776 0.06978375 -0.07000882 0.53216386
000020 a8 1f f4 bc c2 41 00 3f f9 af b7 be e4 e7 ef 3e
       -0.029800251 0.5010034 -0.35876444 0.46856606
000030 62 b2 49 bd 7a ba 38 be 9e 5c a8 3c 47 04 05 3d
       -0.049242385 -0.18039885 0.020551976 0.032474782
000040 ad 7c df bd 7b dd 67 3e d3 42 1c 3e 93 ea 7d 3e
       -0.10912452 0.22643082 0.15259866 0.24796514
000050 f6 5e c6 3e d8 57 66 be fe 26 0d 3e a3 20 df bd
       0.38744324 -0.22494447 0.13784406 -0.10894897
000060 77 3e f7 3d 6a c5 70 be 07 67 01 bf 9b cf be be
       0.12072461 -0.23512807 -0.5054783 -0.37267765
000070 9d e1 09 3d 20 e3 a8 3e 50 bd ca 3e 15 fd c5 3c
       0.033662427 0.32985783 0.3959756 0.02416853
000080 b2 0f 94 be 0c d1 2c bd d7 71 27 bd 9a 94 20 be
       -0.28918225 -0.04219155 -0.04088005 -0.15681687
000090 6d 6b 82 be 4d 55 bb bb 40 99 8b 39 62 6c 31 3e
       -0.25472584 -0.0057169558 0.00026626326 0.17326501
0000a0 88 0f 05 bf 4f 12 d2 bd 53 13 d5 3d 51 bf 9f be
       -0.51976824 -0.10257398 0.104040764 -0.3120065
0000b0 13 d5 5a be b6 36 61 be 7e be 3c bf 89 e1 38 3e
       -0.21370344 -0.21993527 -0.7372817 0.18054785
0000c0 14 99 f1 3e 27 04 55 be 9c 03 44 be 27 fb 7a be
       0.47187102 -0.20802365 -0.19142002 -0.2450987
0000d0 2f af 02 bd ce 5d ac 3e 7a 26 42 be 93 2a da be
       -0.03190535 0.33665317 -0.1895999 -0.42610607
0000e0 3e 9e e3 3e 9b 8c 7a be cd bc 68 bd b4 62 ce be
       0.44456667 -0.24467699 -0.05682068 -0.4030968
0000f0 9a ea ab 3e 5b 88 02 3d c3 6d cf 3e 47 d4 29 3e
       0.33577424 0.03186832 0.4051343 0.16584884
000100 e8 fe 45 be ec db 14 3c 3c 3a b7 3c cd a6 3d bd
       -0.1933552 0.009085637 0.022366636 -0.04630165
000110 45 18 a8 b8 23 a6 7b bd 67 d7 3a be bb 26 dc be
       -8.015385e-05 -0.061437737 -0.18246232 -0.429983
000120 ca 79 9b bd 50 3b cc bd c1 7b 18 3d 4e 83 72 3d
       -0.07591589 -0.099722505 0.037227396 0.059207253
000130 64 38 ae be 18 72 65 3e 14 8e ea 3d a6 fd 06 be
       -0.34027398 0.22406805 0.114528805 -0.13182697
000140 e1 9b 2e 3e 2b 07 98 3c 5f 65 cb be 93 73 dd 3d
       0.1705165 0.018558105 -0.39725778 0.1081306
000150 fd f2 94 3d ce 88 ba 3c 10 9f 8f 3d 6b 49 64 3e
       0.07272909 0.022770312 0.07012761 0.22293632
000160 d7 b9 36 3e 54 2d 99 be b0 e8 7b bd 40 27 89 3e
       0.1784433 -0.29917395 -0.061501205 0.26787758
000170 f5 ff 07 3e 4a 38 6b be 2b a1 ca 3e 74 a3 24 3e
       0.13281234 -0.22970691 0.39576086 0.16077977
000180 67 62 9b 3d 91 57 b1 3e 46 33 90 3d 1e 1e 4a be
       0.07587128 0.3463712 0.0704103 -0.19738051
000190 1d bc 96 be 1f be b4 bd 28 d0 79 3e a4 df a2 3e
       -0.29440394 -0.08825325 0.24395812 0.3181125
0001a0 93 ec d4 3d de 8e dc be fc 3d dd bd 19 3a 92 3e
       0.103966855 -0.4307775 -0.10802838 0.2855995
0001b0 fa 35 1c be 6f 41 a9 3e 42 c8 c2 be 47 15 e4 bd
       -0.15254965 0.33057734 -0.3804341 -0.11136871
0001c0 e4 28 e5 bc 47 42 8b 3e b7 e5 35 bb cf d6 a1 3e
       -0.0279736 0.27199003 -0.002775533 0.31609198
0001d0 b0 79 16 be ad 66 c1 be 14 3c e8 bd 78 d4 9e be
       -0.14694858 -0.37773648 -0.11339584 -0.31021476
0001e0 cd ae e7 3d 3f 1a 68 3c 25 68 c6 bd 14 ed b4 3d
       0.113126375 0.014166414 -0.09687833 0.088342816
0001f0 1e d0 10 be 9b f9 6f 3e 9b 7c b4 3e f4 23 f6 3e
       -0.1414189 0.2343506 0.35251316 0.48074305
000200 0d 39 36 bd 95 b0 16 bd 70 db 48 be fe 87 a0 bd
       -0.044488 -0.036789495 -0.19614959 -0.078384385
000210 70 6f 25 be d1 b1 00 be f8 36 a3 3e 0c c8 ac 3e
       -0.16155791 -0.12567832 0.31877875 0.33746374
000220 f1 2b a4 bc 7d 42 87 3e a1 4d 41 bd 21 ee 30 3e
       -0.020040484 0.26417914 -0.047193173 0.17278339
000230 ba 91 32 be d7 f8 28 be 77 98 ae be dc 70 e7 bc
       -0.17438403 -0.16501175 -0.34100696 -0.028252058
000240 01 bb 2a be 1e 59 ca be 37 df ae be b7 4d 90 bc
       -0.16672899 -0.39521116 -0.34154674 -0.017615182
000250 cf ad 6a be 54 98 9d be 19 6b ca 3c 7d 94 3a bd
       -0.22917865 -0.3078028 0.024709271 -0.045551766
000260 19 92 01 3e 8c 02 14 3e 8c aa 3c bd 13 10 20 3e
       0.12653388 0.14454097 -0.046061084 0.15631132
000270 f7 7f 9e bc 1c ab 01 bd b4 24 15 bf f9 44 ac be
       -0.019348128 -0.031657323 -0.5825913 -0.33646372
000280 58 18 1a 3d 4a 4c cd 3d 7d 46 75 3d a9 1f e5 3e
       0.037620872 0.100243166 0.059881676 0.44750717
000290 e0 cd 55 bb 3e 76 88 3c e0 92 8b bd 29 76 70 3d
       -0.0032623932 0.016657945 -0.068151236 0.058706436
0002a0 26 ff 84 3d 27 18 e4 bc 1c d6 15 3e b6 c3 4b 3e
       0.06493978 -0.027843548 0.14632457 0.19898877
0002b0 fe 7f 39 3e 39 6d 28 be 54 47 27 bd a3 f2 d0 be
       0.18115231 -0.16447915 -0.04083951 -0.40810117
0002c0 e0 16 f5 be 7c cb cd bc 34 9b 49 3d 80 75 ae 3e
       -0.47869015 -0.025121443 0.04922028 0.3407402
0002d0 f3 c9 0b bf 2e 13 01 3f 85 93 12 bf 74 f3 bb be
       -0.54605025 0.5041989 -0.57256347 -0.36709177
0002e0 ca 1c 51 be d6 b8 00 bc d7 10 c8 3d 27 a7 78 be
       -0.20421138 -0.007856568 0.09768837 -0.24282514
0002f0 4d 32 e1 bd 2c 64 49 3e 6b 35 7c 3e ed c6 96 bd
       -0.10995922 0.19667119 0.24629752 -0.07362161
000300 23 1f ac 3e d4 28 88 3e 49 4b 0e 3f d4 76 06 3e
       0.33617505 0.2659365 0.55583626 0.13131267
000310 a9 9a cf bd 3c bb 58 be 67 d1 d8 bd 18 86 f6 bd
       -0.10136921 -0.21165174 -0.10586815 -0.12037295
000320 36 40 85 be b4 74 87 bd 02 c2 28 be c2 5f 64 3d
       -0.26025552 -0.06614056 -0.16480258 0.055755384
000330 fa fe 44 3d 2f 1f d1 be 6f 8c a9 3d 1f 85 fa 3e
       0.048094727 -0.40844104 0.08278739 0.48929688
000340 69 12 0f be 1a 1b 10 be 5f f4 3f 3e 30 27 66 be
       -0.13971867 -0.14072838 0.18745564 -0.22475886
000350 ed 09 aa bd 60 b9 ae 3c cb 36 54 be be ab 9c 3c
       -0.083026744 0.021328628 -0.20724027 0.019124862
000360 03 09 95 bd 45 12 c1 3e 69 c7 c7 3d 23 c5 a0 3e
       -0.072771095 0.3770925 0.09754831 0.31400403
000370 d6 af b8 3e 63 9c 0f 3b 7d 3c 99 bd 9d 8f 90 3e
       0.36071652 0.0021913282 -0.0748224 0.28234568
000380 30 71 a9 bd 86 26 a7 3e 15 f2 bd 3e ec 7e a8 3e
       -0.08273542 0.3264658 0.37098756 0.32909334
000390 99 5a 4c 3e 5f cd 75 be 5a 04 33 be 04 5c 6e bd
       0.19956435 -0.24004124 -0.17482129 -0.05819322
0003a0 61 5e 5b 3e d0 b8 45 3e 71 fb 42 be 1a 8b 3a bf
       0.21422721 0.19308782 -0.1904123 -0.728685
0003b0 89 16 40 bd 12 91 76 be 8d 39 90 be f6 28 e0 3c
       -0.04689649 -0.24078777 -0.28168908 0.027363282
0003c0 3e db ce 3c 55 bb 24 be 6c 52 d5 3b 52 1d 63 3e
       0.025251027 -0.16087086 0.0065100696 0.22179154
0003d0 be b7 cb be 15 b5 0f 3d b8 d6 30 bf 8f 50 76 be
       -0.39788622 0.035084803 -0.69077635 -0.24054168
0003e0 3c 33 cb be f6 23 ae bd 21 f5 b3 3c 16 33 4b 3c
       -0.39687526 -0.08502953 0.021967473 0.012402317
0003f0 86 a6 cd bd 1d 1b 26 3e 2d d0 5b bd f0 a5 04 3f
       -0.100415275 0.1622128 -0.05366533 0.518157

linear2.bias f4 [3]
000000 68 3a 5b 3e b3 9e aa bc 45 eb 95 3c
       0.21408999 -0.020827627 0.018300662
