model/model.pth (torch, 17216 bytes, 4 tensors)

linear1.weight f4 [256, 11]
00000000: 3ed0 e0bd 5048 82be 46ea 81ba a77f 2f3e
00000010: 00ef 8bbe 5b93 213e a769 1f3e 6705 fe3d
00000020: 89b1 cf3d 895f 92be 509b 3e3e cadd 1d3e
00000030: bfaa a6bb 0832 17be c3d3 5c3e ec39 7abe
00000040: 5dfa 693e d194 0b3c c332 02be 468b b33d
00000050: 12f1 0dbe 8673 20be 3a28 553e eb16 a13d
00000060: 76ae c13d 720b 1c3b 7e38 4cbd 0f7b 02bc
00000070: 9585 453c 688c c83d c6db ba3c 3c63 02be
00000080: 7a51 7c3e f06e b4bc 3200 283e 99a5 3bbe
00000090: 74d7 213e da92 56be 1c27 583e 3434 b43d
000000a0: ef9b 93bc e4ff 49be 6962 75be ff16 e0bb
000000b0: 1ea8 b9bd 6c05 15be 8838 883e eed3 40be
000000c0: 58f3 b9bd f7b8 f33c 705e 583e 4247 66bd
000000d0: 4fba 97be 6f9a 82be 3d6c 64bd 4034 03be
000000e0: 083d 07be d639 3b3e 86a4 9bbd 904e 583e
000000f0: ed5f ecbd 1a77 1abe d55a afbd 02c8 993d
00000100: 7f96 3e3e 1b73 28be ba04 163d 6f6b 8b3e
00000110: 9678 60be 038e c9bd f175 05be 46f9 033e
00000120: ddf5 423e 2f26 363e 1ce6 883e fa9b e93d
00000130: c64d e63d b862 d6bd 1a6c 193e 74b7 d4bc
00000140: 1298 f3bd c712 413e 3b85 293e 205f 1dbe
00000150: 9cfa 793e fee6 373e 2fac 0dbd 8f21 69be
00000160: 7b7a 23be 80aa 05bd 818b 60bd 568d 70be
00000170: 621c 123e 7f22 ae3d e6cb 61be 9e85 1fbe
00000180: 3717 8a3e 1223 39be f658 283e 4265 823e
00000190: c8e8 cc3d 0413 903e 8fd6 4bbe 4f77 3f3c
000001a0: f4e3 91be ca27 b63c 6483 32be 8d0b 1ebe
000001b0: d2c8 e1bd 122b 5a3e e23b 7abe c8e7 8bbe
000001c0: a9f4 e73c 5d6f 5cbe 4ee4 843e f68e 2cbe
000001d0: dd9b 1bbe f2d7 ab3d bf14 eebc 6ac9 983e
000001e0: 75ef 81be c006 713e 988c 20bd eb9b 6c3e
000001f0: f3e9 94be e07d 5a3d 682d 923e e423 82be
00000200: a0f2 58be 40ef 393d c595 25be d86d 0d3c
00000210: e427 843d 6745 0fbd c8e8 b1bd 9842 56be
00000220: 2268 723e 331d 18be acab bcbd e0a2 a7b9
00000230: 874b 30be c9fe 9c3d c4a9 14be e666 85bd
00000240: 3097 14be 6cde 82be 216d 863d 47bc 0b3c
00000250: f6cc 223d 984b e03d 6b3e 873e 6a43 e93d
00000260: a579 903e 1cc6 53bd 41c2 3dbd 8750 283e
00000270: bf6a cf3b d882 253e df67 b33d b037 8a3d
00000280: 8128 123c b952 443d aee6 cabc 9f23 a6be
00000290: aed6 e73d d0d1 cbbd 5891 773e 065a c9bd
000002a0: 5bfc 613e c31b 5f3e f09d 533e 0c30 6bbe
000002b0: 0f99 44bd a864 f73d f45a 9dbe d6a6 233e
000002c0: 37e8 963e 858e 963e f7d3 36be d1fd 963e
000002d0: b81b b2bd 3ae9 43be f97b 0fbe b03e 30be
000002e0: f153 823e a276 993e bfd3 a6bc 8ffe 443e
000002f0: d3a2 a83d 94ed 8b3e 4a16 f63d 8e34 03bb
00000300: 4da3 f53c 29c9 80bd d8b1 2b3e a0cb 103e
00000310: c995 06be b8d9 2b3e f482 7ebe f1af 5bbe
00000320: ae37 95bd 8257 523e 3ccf adbd 21e8 8c3d
00000330: c0e1 313d c4b0 71be c47d 2abe 97d9 0fbe
00000340: 8a07 5cbe 4a77 273e c025 c93d 1db0 0cbe
00000350: b015 973e ca42 493e 908b 993e 3461 103e
00000360: 8edb c6bd 6e07 6bbe 27de 93be bffa 3bbe
00000370: e2d8 43be 5bc5 ac3d 7916 6a3e c4f7 753d
00000380: 078d 6e3e 282c 00be 04c8 9fbe 7051 2e3d
00000390: 00ed bbbd 165b 5bbd 7bac fd3d 2eab 46be
000003a0: 94b9 ca3c 1a96 303d c40a 833e 9d9f e0bd
000003b0: 977d 303e 40c9 4c3e 00ba 7f3e e4cf 73be
000003c0: a789 70be d6bc 26bc 3427 26be 3368 23be
000003d0: 1622 c7bd 45c8 d6bd 6298 11bc 9991 1dbe
000003e0: 0c25 313e db36 9a3e 44c3 94bc 62ae 1c3e
000003f0: 08e3 c3bd 3f28 953e e09d 403d 00c3 a1ba
-0.10977219 -0.25445795 -0.0009911738 0.17138539 -0.2733078 0.15778868 0.15567647 0.12403374
0.10141284 -0.28588513 0.18613935 0.15416637 -0.0050862725 -0.14765179 0.21565156 -0.24436158
0.22849412 0.008519367 -0.12714677 0.08766799 -0.13861492 -0.15669069 0.20816126 0.078656994
0.09457104 0.0023810533 -0.049858563 -0.00796391 0.012055774 0.09792405 0.022809874 -0.12733167
0.24640456 -0.022025555 0.16406325 -0.18324889 0.15804845 -0.20954457 0.21108669 0.087990195
-0.01801869 -0.19726521 -0.23963322 -0.006838679 -0.09065269 -0.1455285 0.2660563 -0.18830845
-0.09079617 0.029751284 0.21129775 -0.0562203 -0.2963433 -0.25508448 -0.055767287 -0.128129
-0.13206875 0.18283781 -0.0759974 0.21123719 -0.11541734 -0.15084496 -0.08562247 0.075088516
0.18612097 -0.16450159 0.0366256 0.27230403 -0.21921 -0.0984154 -0.13033272 0.12888059
0.19039102 0.17788003 0.2673806 0.11406703 0.11245303 -0.10468048 0.14982644 -0.025966384
-0.118942395 0.18854819 0.1655473 -0.15368319 0.24412006 0.1795921 -0.034588035 -0.22766708
-0.15964691 -0.032633305 -0.05482054 -0.23491415 0.1426864 0.08502673 -0.22050437 -0.15578315
0.26970837 -0.18079785 0.16440186 0.2546788 0.10005337 0.28139508 -0.19906066 0.01168616
-0.28494227 0.02223577 -0.17432934 -0.15434094 -0.110246316 0.21305493 -0.24436906 -0.27325273
0.028314905 -0.21526857 0.25955433 -0.1685141 -0.15196176 0.08390798 -0.029062627 0.29841167
-0.25378004 0.23537731 -0.03919658 0.23106353 -0.2908474 0.0533427 0.28550267 -0.25418007
-0.21186304 0.045394182 -0.16170414 0.008632146 0.06452921 -0.034978297 -0.086869776 -0.20923841
0.23672536 -0.14854889 -0.09212431 -0.00031974073 -0.17216311 0.07665784 -0.14517885 -0.06513767
-0.14510798 -0.2556032 0.065637834 0.008528776 0.039746247 0.10951918 0.2641481 0.11389811
0.28217807 -0.051702604 -0.046327833 0.16436969 0.006329864 0.16163194 0.08760046 0.06748903
0.00892079 0.047930453 -0.0247682 -0.32449052 0.11320244 -0.09952128 0.24176538 -0.09831624
0.22068922 0.21787934 0.20665717 -0.22967547 -0.04799753 0.120797455 -0.30733454 0.15981612
0.2947404 0.2940561 -0.17854296 0.29490522 -0.08696693 -0.19131938 -0.14012136 -0.17211413
0.25454667 0.29973322 -0.02036464 0.19237731 0.08234181 0.27329695 0.1201597 -0.0020020339
0.029985094 -0.06288368 0.16767061 0.14140177 -0.13143076 0.16782272 -0.24854642 -0.21453835
-0.07286011 0.20541194 -0.084867924 0.068802126 0.043428183 -0.23602587 -0.16649538 -0.14047848
-0.21487251 0.16354099 0.09821653 -0.13739057 0.29508734 0.19654384 0.2998929 0.1409958
-0.097098455 -0.22952053 -0.28880426 -0.18357371 -0.19125703 0.0843608 0.22860135 0.06005074
0.23295985 -0.12516844 -0.31207287 0.042558134 -0.091760635 -0.053553663 0.12386414 -0.19401237
0.024746694 0.043111898 0.2559415 -0.10967944 0.17235409 0.19998646 0.24973297 -0.23809773
-0.2349001 -0.010176858 -0.16225892 -0.15957718 -0.09723298 -0.10487417 -0.008886429 -0.15387572
0.17299289 0.30119976 -0.018159516 0.15300897 -0.09564787 0.29132268 0.04702556 -0.001234144

linear1.bias f4 [256]
00000000: f559 2ebd 151a b23d 9851 d2bd a862 78be
00000010: 8a2c 6dbd 1aad 81be 3914 8e3e 3124 493d
00000020: 80ea f63c 28cd 2fbe 685a 8d39 7c37 57be
00000030: 8e2f 60be 5df3 a23e 0369 1e3e 3e69 02be
00000040: 54c5 54be 831b 813e c767 0f3e 95dc 99be
00000050: 8106 7f3e 19d7 143e 3a38 5b3e 4ee1 16be
00000060: a4ce 42be 9fd6 9a3e d8bc 1a3d 8c3f 9e3d
00000070: fc9d 863e c313 cc3b b9db bc3d 0190 483e
00000080: c98b 2b3e dcd7 89be 555d b3bc c864 173e
00000090: c799 6ebe 28fa dabd d567 f0bd dde9 8dbd
000000a0: 1725 31be 5664 eebd 0697 30bd d478 25be
000000b0: 489f 47be ef05 7ebe 9296 90be 185f b0bd
000000c0: 88ed 40be 6594 41be ecf4 7fbe 1d72 193d
000000d0: fdaf 0cbe 2f21 85bd 4350 ee3d a45a 1f3e
000000e0: c500 863e 0128 34be fde9 4bbe 98a2 b2bd
000000f0: 40c6 da3d ab1a 65be bcd4 3abe 9490 9c3e
00000100: 6cd7 f4bd 17e4 ff3d 4125 a9be b298 913e
00000110: ef22 cdbd 771f 3dbe 2a4d b0bd 2799 b6bb
00000120: 2291 8ebe 0c5a 99be f976 0dbe be05 8dbe
00000130: 03d7 4b3e e988 3b3e 30c6 0cbe 0b26 8c3d
00000140: 2eb2 1b3e 3aac f6bc 1eee 313e 816b 87be
00000150: 5eef 3cbd 878f 0c3e eebc b83d aed7 5f3e
00000160: 249d 8ebe f4a1 f3bd b269 523e bd50 8e3e
00000170: a851 e0bc 6ed9 07bd 6746 87be 65d3 81be
00000180: 4aa9 733e 1d97 19be ff21 99be 509f cbbb
00000190: abd2 ed3d 7a90 12be bb39 b2bd 6a31 743e
000001a0: 8c1b fd3d 8603 ea3d df15 4dbd 9b70 823e
000001b0: 5262 19be e24f 8d3e 8b1c 97bc 6f61 443e
000001c0: 4ef2 803e 214c 943e 708f 803e 382a 703e
000001d0: baad 82be e43b 383e 64bc 14be d694 993d
000001e0: 78cc ee3d 721f 60be 3902 4f3e c4e0 6d3e
000001f0: dcc8 fd3d 105f cc3d 9ffd 30be 6a13 983e
00000200: 1b24 73be d110 743e 4dd1 ec3d 5914 6abe
00000210: fb26 13be b49d b73c 4ab6 e6bd 7f21 023e
00000220: 2c39 90bd 356a 9e3e 53e3 bb3d cb25 603e
00000230: b91d 093e 8adc 30be eedb 493e a252 193e
00000240: 0c2a cb3d 5fa0 1abc 756c 243c 124f 4cbe
00000250: a2f4 933e 4744 803c e438 51bd b236 80be
00000260: 5705 b03d 2dc0 2f3e 4dae f53d 6009 833e
00000270: 3066 a33e 94ca c7bd 7416 603e 8207 0c3e
00000280: 606a b93d a6f6 aabc 89b8 8f3e 9160 a23e
00000290: d43c 033e a2d6 a6be 82ec 52bb aaa1 053d
000002a0: a3f5 2e3d ef87 bd3d 3cf6 b4bd ffd4 aabc
000002b0: 5449 f2bc cbb7 983d a77e 853e 66a6 4fbe
000002c0: 585d 2b3e 6453 023d 204a 36be 5a1b 80bd
000002d0: 1ae9 8dbe 54f2 c8bd 3c56 7d3d 8719 36be
000002e0: 8990 abbd 5ce0 1b3e 99c7 2ebe eccd eb3d
000002f0: 70b8 45be c12a d8bd b3e7 9bbe dc3b a63d
00000300: 4a59 8f3e 0276 b8bd f095 943e 3311 1ebe
00000310: 5233 673e 7960 ea3d eb84 903c 108d 773e
00000320: 36c6 cd3d 5188 8fbe 4e12 893d 423a 99bd
00000330: f256 cb3b dc37 c33d 39ad 763e bede 283e
00000340: 9e10 acbe 05ad 833e ff82 de3c 1afa 833e
00000350: 7113 863e e76e 6f3e 9bfb dabc 12a3 fdbc
00000360: 25ab 6b3e 3971 5c3d 942b 56be ee55 65be
00000370: f17c 243e df8d 103e 5aa5 29be f4f0 103e
00000380: 379f 8f3e 63da 96be 0876 693e e5ab 0f3e
00000390: 8db3 623e acb7 3e3c 4887 05be 6705 98be
000003a0: 084e 1dbe 8200 433e 5fa8 303e f717 8f3e
000003b0: 8d47 a93d 9e01 8ebe 682e 3d3b dd2e 8f3c
000003c0: 473e acbe e8e5 36bc b7ce 0f3e 6797 ea3d
000003d0: e740 11be 745d e7bd 9674 06be 7253 44be
000003e0: 9aba 8e3e 2d3f 1d3e 56a2 8bbd 892d 413e
000003f0: 5320 46be b8e4 1abe c715 cebd 9222 533e
-0.04256626 0.08696381 -0.10269469 -0.24256384 -0.057903804 -0.2532738 0.27749804 0.04910678
0.030141115 -0.17168105 0.00026960974 -0.2101726 -0.2189314 0.31826296 0.15469746 -0.12735459
-0.207784 0.25216302 0.14004432 -0.30051103 0.24904825 0.14535178 0.21408167 -0.14734384
-0.1902414 0.30241868 0.03777775 0.07726964 0.26292408 0.0062279417 0.09221596 0.19586183
0.16752543 -0.269225 -0.02189509 0.14784539 -0.23300849 -0.10692245 -0.117385544 -0.069293715
-0.17299305 -0.11640231 -0.043112777 -0.16159374 -0.19494355 -0.24806951 -0.28239876 -0.08611888
-0.18840611 -0.18904264 -0.24995774 0.037462343 -0.13739009 -0.0650047 0.116364025 0.1556192
0.26172462 -0.17593385 -0.19913478 -0.087224185 0.106823444 -0.22373454 -0.18245214 0.30579054
-0.11955151 0.124946766 -0.33036235 0.2843681 -0.10016429 -0.18469034 -0.08608468 -0.0055724564
-0.27845103 -0.29951513 -0.13814916 -0.27543443 0.19906239 0.18313946 -0.13747478 0.068431936
0.15204689 -0.03011142 0.17375991 -0.26449206 -0.046126716 0.13726626 0.090204105 0.21859619
-0.27854264 -0.118961245 0.20548132 0.27795973 -0.027382687 -0.03316634 -0.264209 -0.25356594
0.23795047 -0.14999051 -0.2990875 -0.00621406 0.11612447 -0.14312926 -0.087024175 0.23846975
0.1235877 0.11426453 -0.050069686 0.25476536 -0.14978912 0.27600008 -0.018446228 0.19177793
0.25184864 0.28964332 0.25109434 0.23453605 -0.25523168 0.17991596 -0.1452499 0.07499091
0.11660093 -0.21886995 0.20215692 0.23230273 0.123918265 0.09979069 -0.17284249 0.29702312
-0.23744242 0.2383454 0.115633585 -0.22859325 -0.14370339 0.022414066 -0.11265238 0.1270809
-0.07042155 0.30940405 0.09174218 0.21889417 0.13390245 -0.17271629 0.19712803 0.14972928
0.09920129 -0.0094376495 0.010035624 -0.19952038 0.28897578 0.015657557 -0.051079646 -0.2504173
0.085947685 0.17163153 0.11996136 0.2559309 0.319139 -0.097554356 0.21883565 0.13674739
0.090534925 -0.020869564 0.28070477 0.317143 0.12816173 -0.32585627 -0.0032184427 0.032624878
0.042714726 0.09254443 -0.08836028 -0.020853518 -0.029575981 0.07456931 0.2607319 -0.2027832
0.16734827 0.03181781 -0.17801714 -0.06255217 -0.27716905 -0.098118454 0.061849818 -0.17783175
-0.08377177 0.15222305 -0.17068328 0.11513886 -0.19308639 -0.1055503 -0.3045021 0.08116886
0.2799781 -0.09006883 0.29020643 -0.15436248 0.22578171 0.11444182 0.017641505 0.24174905
0.10047571 -0.2803369 0.066929445 -0.07481815 0.006205433 0.09532139 0.24089517 0.1649122
-0.33606428 0.2571794 0.027162073 0.2577675 0.26186708 0.2338215 -0.026731303 -0.030961547
0.23014505 0.053818915 -0.20915061 -0.22396061 0.16063286 0.1411662 -0.16566983 0.14154416
0.2805116 -0.2946349 0.22798932 0.14030416 0.22138806 0.0116404705 -0.13039887 -0.29691622
-0.15361798 0.19043162 0.17251728 0.2794797 0.082656 -0.2773561 0.0028866772 0.0174784
-0.33641264 -0.011163212 0.14043699 0.11454659 -0.14184915 -0.11297122 -0.13130412 -0.19172457
0.2787674 0.15356131 -0.068180725 0.18865027 -0.19348268 -0.15126312 -0.100627474 0.20618656

linear2.weight f4 [3, 256]
00000000: 4672 94bd 5a1c 183c da08 8f3b 0a0b 1dbd
00000010: 75e4 54bc 556a 473d 93ca 5fbd d212 abbd
00000020: 2722 983c bc47 d9bc dd79 20bd c151 973c
00000030: 6ae1 e03c 79c0 9fbd 455c 9abd 48a5 7d3a
00000040: c361 b2bc adb0 c4bb 29d7 583c 3c89 b63c
00000050: 7353 18bc bcd4 953c 5e43 bf3c b574 66bb
00000060: d861 463c def3 42bd dea7 563c 03af 88bd
00000070: 010c 7ebd ff83 06bd 731d 28bd e12f b53c
00000080: eb85 da3b ced5 58bd 9fcb 773c 151f 41bd
00000090: 5cb8 e6bc 5fc6 673d 9ec3 09bb 5031 69bd
000000a0: 5ec7 1abd 4828 d9bb 2453 9a3c ab3a 99bc
000000b0: b2ed 3ebc 23a9 dabd bb59 743c c8c1 01bd
000000c0: e703 6b3d 9e50 c93c f4eb e23c 5188 6bbc
000000d0: d37a 09ba 7824 91bd c713 aabd 7b8b e3bc
000000e0: bac5 e6bc 1ab1 eebc 7e56 ce3a 54d4 8ebd
000000f0: 03cb c03b 5c1d 053d 88f6 90bd f3c9 39bd
00000100: 2094 93bd 5864 94bd ab41 863c 27f2 94bd
00000110: 01fc bc3c 869a 62bb 3b6b 8fbd c94e b0bd
00000120: 4121 cd3c bae8 443a 0d3c 41bd 108e 50bd
00000130: a155 99bd 48ba 8b3c 4709 2d3d f338 b8b9
00000140: 9f99 b8bc a71c 593b 6599 43bd 038e 06bc
00000150: 7a97 2cbd 4031 13bd c0de fc38 8d78 b2bd
00000160: d34e 103d 5e8c 22bc 01fb 443c 8ddb 34bb
00000170: f242 a1bc 87ba ce3c 0263 553d 39e2 4cbd
00000180: da56 9c3c 312e 2a3c 9c77 143c 86de 723c
00000190: 0135 88bd d082 48bb e163 02bc 0ad0 5ebd
000001a0: 5a47 2fbd d981 67bd 4b88 dabc 3c9c f4bc
000001b0: 9c67 fcbc ac11 a2bd 349b 2dbd c656 0a3c
000001c0: 6615 bd39 11f5 6dba aeed a1bd fdd7 e0bd
000001d0: 7e04 493b 43dc 9c3b 3bf4 17bd 8317 bebd
000001e0: 724a 853c 0329 36bd 7cca 86bd e9d1 0abd
000001f0: 22f6 263b e52c 7a3c 1f6b 80bd 17da 44bc
00000200: d8b2 0c3d 2b99 883c 71d6 5fbd 5daf 9bbc
00000210: 1487 e7bc e5cb 40bd 48d6 b5bd da3b de3c
00000220: aa21 83bd 1216 1bbd 9efb 6ebd 6344 59bd
00000230: bb14 43bd e188 08bc 7827 a0bd cab9 82bd
00000240: 1647 5abb 29ca 47bd 8659 56bc 2b2b 56bc
00000250: 891a a6bc 6cec d83b 06f6 50bd 77c5 f13c
00000260: 3e6d 18ba cdfa 65bd 33e0 9cbc dfa7 b7bd
00000270: 263a 34bd f673 a43c 1276 0b3c 7a9d 4939
00000280: f9c0 f6bc feef ebbc 2830 fbbb d0e1 92bd
00000290: 4258 9ebd 41a3 353c 478f f3bc 0f2c 07bc
000002a0: 3bd0 3cbd 9b3a 853c c965 193d d944 b9bd
000002b0: 446f 9abd 7004 c8bd 82a3 66bd 30ea bd3b
000002c0: 86a6 70bc 5d34 a2bd 95ea 8c3b 618e 2dbd
000002d0: ae99 963d 7142 113d 2f55 9cbd 7f27 a0ba
000002e0: 176f 1dbd 5fd4 07bd c73a f33c 7c04 7d3c
000002f0: dd98 94bd 08f3 b2bd 2ba0 50ba 87a2 a0bd
00000300: cffc 24bc 0f16 9bbd 243b 38bd df4e 95bd
00000310: e309 b6bd 0eb0 4fbb cce8 d83c 23ff f2bc
00000320: 9e41 e4bc 209f 653c 393d 35bc dc2d a73a
00000330: 3912 9dbd 8e4c 3dbd 8ee4 f8bb 4e00 e4bc
00000340: 31af 4d3d bdd8 4abd baf3 113b 00e8 4bbd
00000350: 5dfd 563b 8c48 3abd c0b8 1abd 690d 90bc
00000360: d98d b9bc 28e4 57bd 8642 4cbc 6d7a 69bd
00000370: 8e42 583c d3b6 b7bb 4067 593b 4cd3 8639
00000380: 0487 c8bd c196 1a3d 2aa2 dfbc 89ac 73bc
00000390: d24e 393c 1c77 5dbd ebdf 5ebb 4057 523b
000003a0: 84b8 89bc 146f 823c 9374 43bd e24d 62bd
000003b0: 213f 96bc c0f3 2abd dec1 d7bc e016 61bd
000003c0: 7318 13bc ab60 8cbd 5380 31bc 7903 41bc
000003d0: 891a 31bd a27c 69bd 28cf 0ebd b824 d23b
000003e0: 3b18 80bd 6734 e9bc eeb1 453c 0a6c 4abd
000003f0: 3858 423d 18d4 733c 3667 83bd 07a4 4abd
-0.072483584 0.009284103 0.004365069 -0.038340606 -0.0129939215 0.04868539 -0.05463655 -0.08353199
0.018570973 -0.026523463 -0.039178718 0.0184716 0.027451236 -0.07800383 -0.0753713 0.0009675813
-0.021775132 -0.0060025067 0.013234892 0.022282235 -0.00929724 0.018289916 0.023347553 -0.0035164778
0.012108289 -0.04759585 0.013101546 -0.06674006 -0.062023167 -0.032840725 -0.04104371 0.022117557
0.0066687963 -0.052938275 0.015124231 -0.047148783 -0.028164081 0.056585666 -0.0021021138 -0.056931794
-0.037787788 -0.0066271164 0.018838473 -0.018704733 -0.011653351 -0.106767915 0.014913972 -0.031678945
0.05737677 0.024574574 0.027700402 -0.014375762 -0.00052444375 -0.07087034 -0.083045535 -0.02777647
-0.028170455 -0.029137183 0.0015742329 -0.06974092 0.005883576 0.032498702 -0.07078272 -0.04535861
-0.07205987 -0.072457016 0.016388735 -0.072727494 0.023069384 -0.0034576966 -0.070028745 -0.08608777
0.02504027 0.00075114856 -0.04717641 -0.05091673 -0.074870355 0.0170566 0.042245176 -0.00035137645
-0.02253419 0.003312865 -0.04775371 -0.008212569 -0.042136647 -0.03593564 0.00012057787 -0.087143995
0.035231423 -0.009921161 0.012022735 -0.0027596683 -0.019685242 0.025235428 0.052096374 -0.05002043
0.019084383 0.010386989 0.00906172 0.0148235615 -0.06650735 -0.0030595548 -0.007958383 -0.05439762
-0.042792656 -0.056520317 -0.026676318 -0.029859655 -0.030811124 -0.07913527 -0.04238434 0.00844354
0.00036064832 -0.000907735 -0.07906662 -0.109786965 0.0030672844 0.0047869994 -0.03709815 -0.09281828
0.01627085 -0.044472706 -0.065815896 -0.033891592 0.0025476296 0.015269493 -0.06270432 -0.012014887
0.034350246 0.016674599 -0.054647867 -0.019004518 -0.028262652 -0.04706945 -0.088787615 0.027128149
-0.06402905 -0.037862845 -0.05834543 -0.053043734 -0.047627192 -0.008333416 -0.07820028 -0.06383093
-0.003330653 -0.04877678 -0.0130828675 -0.0130718155 -0.020276325 0.0066199806 -0.051015876 0.029513104
-0.0005814618 -0.056147385 -0.019149875 -0.08967566 -0.044000767 0.020074826 0.008512037 0.00019227518
-0.030121313 -0.02880096 -0.007665653 -0.071719766 -0.077316776 0.011086286 -0.029731406 -0.0082502505
-0.04609702 0.016263297 0.037450586 -0.09046335 -0.075407535 -0.097664714 -0.056308277 0.0057957396
-0.01468814 -0.07920144 0.0043004253 -0.04237211 0.07353531 0.035463754 -0.07633435 -0.0012218802
-0.03843602 -0.033161517 0.029691113 0.015442964 -0.07255719 -0.08737761 -0.0007958437 -0.078435
-0.01007004 -0.07572567 -0.044978276 -0.07290434 -0.088886045 -0.003169063 0.026478194 -0.029662674
-0.02786332 0.014014989 -0.01106196 0.0012754756 -0.07669491 -0.046215586 -0.007595605 -0.027832177
0.050215904 -0.049523104 0.0022270516 -0.0497818 0.0032804825 -0.045479342 -0.037773848 -0.01758452
-0.022650646 -0.05270782 -0.012467032 -0.05700152 0.013199462 -0.005606511 0.0033173114 0.000257159
-0.09791377 0.037741426 -0.027299006 -0.014872679 0.011310296 -0.05406867 -0.0034007977 0.0032095462
-0.016811617 0.015922107 -0.047718596 -0.055250056 -0.01834065 -0.041736364 -0.02633756 -0.054953456
-0.008977997 -0.068543755 -0.0108338175 -0.011780613 -0.043238197 -0.057003625 -0.03486553 0.0064130686
-0.062546216 -0.02846737 0.0120663475 -0.04941944 0.047447413 0.01488211 -0.0641617 -0.049472835

linear2.bias f4 [3]
00000000: bdd5 c9bc 593a c0bc 2010 a0bd
-0.024638051 -0.023465322 -0.078155756
